…
2020-09-29 06:01:54.555250: I tensorflow/core/common_runtime/gpu/gpu_device.cc:1247] Created TensorFlow device (/job:localhost/replica:0/task:0/device:GPU:0 with 4096 MB memory) -> physical GPU (device: 0, name: GeForce RTX 2070 SUPER, pci bus id: 0000:07:00.0, compute capability: 7.5)
2020-09-29 06:01:54.557581: I tensorflow/compiler/xla/service/service.cc:168] XLA service 0x1676bb03030 initialized for platform CUDA (this does not guarantee that XLA will be used). Devices:
2020-09-29 06:01:54.557680: I tensorflow/compiler/xla/service/service.cc:176]   StreamExecutor device (0): GeForce RTX 2070 SUPER, Compute Capability 7.5
Model: "sequential"
_________________________________________________________________
Layer (type)                 Output Shape              Param #   
=================================================================
conv2d (Conv2D)              (None, 49, 44, 64)        640       
_________________________________________________________________
activation (Activation)      (None, 49, 44, 64)        0         
_________________________________________________________________
dropout (Dropout)            (None, 49, 44, 64)        0         
_________________________________________________________________
conv2d_1 (Conv2D)            (None, 47, 42, 64)        36928     
_________________________________________________________________
activation_1 (Activation)    (None, 47, 42, 64)        0         
_________________________________________________________________
dropout_1 (Dropout)          (None, 47, 42, 64)        0         
_________________________________________________________________
conv2d_2 (Conv2D)            (None, 23, 20, 128)       73856     
_________________________________________________________________
activation_2 (Activation)    (None, 23, 20, 128)       0         
_________________________________________________________________
dropout_2 (Dropout)          (None, 23, 20, 128)       0         
_________________________________________________________________
conv2d_3 (Conv2D)            (None, 21, 18, 128)       147584    
_________________________________________________________________
activation_3 (Activation)    (None, 21, 18, 128)       0         
_________________________________________________________________
dropout_3 (Dropout)          (None, 21, 18, 128)       0         
_________________________________________________________________
conv2d_4 (Conv2D)            (None, 19, 16, 256)       295168    
_________________________________________________________________
activation_4 (Activation)    (None, 19, 16, 256)       0         
_________________________________________________________________
dropout_4 (Dropout)          (None, 19, 16, 256)       0         
_________________________________________________________________
conv2d_5 (Conv2D)            (None, 9, 7, 512)         1180160   
_________________________________________________________________
activation_5 (Activation)    (None, 9, 7, 512)         0         
_________________________________________________________________
dropout_5 (Dropout)          (None, 9, 7, 512)         0         
_________________________________________________________________
conv2d_6 (Conv2D)            (None, 7, 5, 512)         2359808   
_________________________________________________________________
activation_6 (Activation)    (None, 7, 5, 512)         0         
_________________________________________________________________
global_average_pooling2d (Gl (None, 512)               0         
_________________________________________________________________
dense (Dense)                (None, 2)                 1026      
=================================================================
Total params: 4,095,170
Trainable params: 4,095,170
Non-trainable params: 0
_________________________________________________________________
Epoch 1/200
2020-09-29 06:01:55.538960: I tensorflow/stream_executor/platform/default/dso_loader.cc:44] Successfully opened dynamic library cublas64_10.dll
2020-09-29 06:01:55.816779: I tensorflow/stream_executor/platform/default/dso_loader.cc:44] Successfully opened dynamic library cudnn64_7.dll
…
